mujoco/agent-zoo/kick-and-defend/model.npy (npy, 239696 bytes, 1 tensors)

array f4 [59892]
000000 c7 6d d9 3d b3 8c af bd be e8 ec 3d a5 61 e7 bc
       0.106166415 -0.08571758 0.115678295 -0.028244803
000010 eb 30 5c 3e ca 91 1f bd ee f3 3a bd 74 2d 4c bc
       0.21503036 -0.038957395 -0.045642786 -0.012462009
000020 4d d6 62 bd c1 a0 e3 3d 6c 87 4b 3d 42 52 15 3e
       -0.055380154 0.11114646 0.049689695 0.1458216
000030 56 8b 00 be 56 45 7d 3d 83 32 03 bd 16 2b b6 bd
       -0.12553152 0.061833702 -0.032030594 -0.08894937
000040 b8 2e d4 3d ab 13 29 bd 19 c2 20 3e ea d3 ab 3b
       0.103604734 -0.041278522 0.15699042 0.005243768
000050 b0 99 76 3d 14 41 8d bd 2a b7 9b 3d f1 a7 d8 3d
       0.06020516 -0.06897178 0.07603295 0.10578907
000060 b8 7a da bc 8a 92 dd 3c 69 ff 8b be 75 52 cd 3b
       -0.026669845 0.027047414 -0.273433 0.006265933
000070 01 e6 cd bd a4 8c 5e bd 78 2b 0f 3e 4a 24 31 bc
       -0.100536354 -0.054333344 0.13981426 -0.010811875
000080 ce 2e 6b 3d 06 d0 82 3d 6a db 54 3d 0b 7a 88 bd
       0.057417683 0.063873336 0.051967062 -0.06663903
000090 2e f5 af bd e2 38 08 be 86 0c 20 bd 17 36 4c be
       -0.08591686 -0.13302949 -0.039074443 -0.19942509
0000a0 13 6f 52 be 83 f8 5c be 38 3f 0e bd 84 ea 63 be
       -0.20550184 -0.21579175 -0.03472826 -0.2225743
0000b0 a1 0d 26 3e e0 35 d9 bc 73 83 6f 3d 4d 74 32 3e
       0.16216137 -0.026514947 0.05847497 0.17427178
0000c0 71 2d c6 bc 3e 89 a1 bc 4d c4 78 bc 90 19 e1 3d
       -0.02419159 -0.019718762 -0.0151835205 0.10991204
0000d0 62 f0 e4 3b 0f e9 0b 3d b8 a3 8d 3d f9 5d 05 3e
       0.0069866637 0.03415781 0.069159925 0.13024129
0000e0 9e ff 93 3c 15 45 b8 3c 31 62 6a bc 2c 94 93 3d
       0.018066224 0.022493878 -0.014305637 0.07205996
0000f0 d3 fb cc 3d 0a 11 c3 3c e9 bb 05 bd 2f e1 68 3d
       0.10008969 0.023811836 -0.03264991 0.056855377
000100 18 7c 19 3e ef cd 55 3c b3 e4 73 be 2e cc 8a bd
       0.14988744 0.013049587 -0.2381771 -0.067772254
000110 07 82 7a bd f1 5f a8 bc 97 75 77 3b 05 00 c8 3d
       -0.06115916 -0.02055356 0.0037759298 0.09765629
000120 60 bf a5 bc 74 87 d9 bd 47 c4 80 3d 4b 98 c4 bd
       -0.020232856 -0.10621539 0.06287437 -0.0959936
000130 65 a8 1f bd 8c 78 81 bd 2b 19 fc 3d 3c 0c ac 3d
       -0.038978953 -0.063218206 0.12309488 0.08400771
000140 d0 53 5f bd 31 7a c2 bc c4 14 de 3d c5 06 0e be
       -0.05452329 -0.023739906 0.108438045 -0.1386977
000150 4b 9a a4 bd 0c 85 12 3e d7 9c f3 3d 42 0d 8f 3d
       -0.080372415 0.14308566 0.11895149 0.069849506
000160 27 e4 a0 3d d6 df ef 3d fc 94 4f 3d bf 23 b3 3d
       0.078560166 0.11712615 0.050679192 0.087470524
000170 75 50 39 bd 13 13 01 3d 05 77 6d 3d 6f f2 a7 3c
       -0.045242745 0.03151233 0.057974834 0.020501344
000180 26 90 cf bd 0c 8e 72 bd 6d c6 aa 3d 73 19 0c bd
       -0.10134916 -0.059217498 0.08338628 -0.034203958
000190 ff 45 df 3c 4c fb 11 3e e4 90 54 bd 8c 0a b8 3d
       0.027255056 0.14256018 -0.05189599 0.08986387
0001a0 7d 84 04 be 53 03 1b bd 20 ad 4c 3a 6a b6 76 3d
       -0.12941165 -0.037844967 0.000780778 0.060232557
0001b0 74 a1 a4 3b f1 bf 0a 3c a5 19 14 be ef 67 fb bc
       0.0050241295 0.008468614 -0.14462908 -0.030689208
0001c0 20 83 31 3d 93 3c dd bd ba c7 17 bb 99 35 3a bd
       0.04333794 -0.10802569 -0.0023159818 -0.04546127
0001d0 14 a8 92 be 68 27 7d bd 17 63 2f be 02 f1 c2 bd
       -0.28643858 -0.06180516 -0.17127644 -0.09518625
0001e0 2c c1 cc bd 5c 86 6b 3d 00 00 b0 bd 61 77 99 3d
       -0.09997782 0.057501182 -0.0859375 0.07493473
0001f0 a4 21 cf 3c 98 96 2c bc 65 98 06 bd 25 29 6b 3d
       0.025284596 -0.010533951 -0.03286018 0.057412285
000200 74 67 8a bd dc a6 8e bc d4 76 ba 3d 17 66 25 3c
       -0.06758013 -0.01741355 0.09104696 0.010095141
000210 cc e3 6e 3d 9e 54 87 3d 20 ff f3 bd 23 07 c4 bd
       0.058322713 0.06607936 -0.119138956 -0.09571674
000220 c4 af 76 bc bf 90 57 bd fe fa 07 3e a3 a4 5c 3d
       -0.015056554 -0.052628275 0.1327934 0.053867947
000230 5b 16 69 bd 50 3f 0c be ec 4d 2b bd 6d 16 a6 3b
       -0.056906085 -0.13696027 -0.04182236 0.0050685913
000240 4e f6 45 be 33 57 bb 3c da 7d 83 bd fd 7c 8e 3c
       -0.19332239 0.022868728 -0.06420489 0.017393583
000250 fb f2 02 3c 67 80 51 bd 58 e4 d2 bc 8c 77 d8 ba
       0.007992501 -0.051147845 -0.025743648 -0.001651512
000260 e6 88 55 bd 88 a4 18 3c d8 56 ee 3d 62 19 f1 bd
       -0.05213251 0.009316571 0.11637658 -0.117724195
000270 29 0f 82 bc 9c 94 27 3d e1 54 2c 3d 65 80 23 3c
       -0.01587637 0.04091321 0.042073134 0.009979342
000280 7d 65 9c 3c df 4e f0 bd 75 8f b5 3d 5d e1 5b be
       0.019091362 -0.117337935 0.08865253 -0.21472688
000290 0b 57 ab bc ef 3d 8c 3d 79 88 c8 bd 78 be 18 3c
       -0.020915529 0.068477504 -0.09791655 0.009322755
0002a0 29 67 07 3e 33 72 ba bb 79 bc 19 bc 55 bb 94 3d
       0.13222946 -0.005689883 -0.009383314 0.07262293
0002b0 8a 47 cf bd 99 2f f2 3d b3 d2 0d 3e 8e cc 40 be
       -0.10121067 0.11825485 0.13849907 -0.18828031
0002c0 0e 07 bf 3c 60 e3 58 3d 4b 4d 42 bd 58 91 ef bb
       0.023318794 0.052951217 -0.047436994 -0.0073110275
0002d0 56 8b 85 3d c0 7e f3 3d 60 99 77 3c 8e e3 d6 bd
       0.06520717 0.1188941 0.015112251 -0.10492621
0002e0 a1 b6 c7 bd 04 23 c7 bd 56 7d 17 be 7b 3f 8b 3c
       -0.097516306 -0.097234756 -0.14793906 0.016998043
0002f0 ec 4d 7d 3c 5c fe 0d be ad de 2d bd 1c d3 ed bd
       0.015460473 -0.13866562 -0.04244869 -0.116125315
000300 76 41 8b bc b1 9c 03 3d b3 48 4a 3b 01 99 3b 3d
       -0.016998988 0.032131854 0.0030866086 0.045800213
000310 76 61 2a bc 36 cf 71 3c 05 23 ae 3d a2 53 f6 3d
       -0.010399213 0.014758876 0.08502773 0.120276704
000320 8a df ac bd e3 ff b7 bc 76 52 23 bd cc 4c 5e 39
       -0.08441074 -0.022460883 -0.039873563 0.00021200179
000330 9c aa 4b bd 91 f5 70 bb bf 89 25 3e fa ac d5 3c
       -0.049723253 -0.0036767463 0.16165827 0.026083458
000340 d4 e5 6e bd c4 67 8c bd af 22 28 bd 6d cd 4d 3e
       -0.05832465 -0.06855729 -0.0410487 0.20097895
000350 f6 e4 73 bd 6f 5e bf bd e0 fc f3 3c 24 75 28 be
       -0.059544526 -0.09344184 0.029783666 -0.16450936
000360 6b e9 f4 3c 3e fe a0 bc 5c e4 76 3d cd 72 a2 3d
       0.029896459 -0.019652482 0.060276374 0.07932053
000370 67 46 a4 3b de c1 ce 3c cb 80 21 bc e0 b8 d8 3c
       0.0050132754 0.025238927 -0.009857367 0.026455343
000380 39 22 9b bd 2b d8 be ba 5d 46 0f 3e 79 d4 3d 3d
       -0.07574887 -0.0014560273 0.13991685 0.046345208
000390 49 4b f9 bd 76 31 3a 3d 1d b3 fb 3d f4 a2 82 bd
       -0.12172563 0.045457326 0.122900225 -0.06378737
0003a0 7f 7e 1f bd 18 40 b2 bd 43 1d a3 bd c8 a4 a2 bd
       -0.038938995 -0.08703631 -0.079645656 -0.07941586
0003b0 2c a3 14 be 5a 9a 80 bc 97 62 97 bc f7 af bc 3b
       -0.1451537 -0.0156986 -0.018479628 0.0057582813
0003c0 fa 2b 8e bd 4d c3 a6 3d 7c 59 01 3d 1d 93 8c 3c
       -0.069419816 0.081427194 0.03157948 0.017159993
0003d0 37 be b1 3d 39 14 05 bd 6d e2 d9 bd 41 09 7c 3d
       0.08678859 -0.03248999 -0.106388904 0.061532263
0003e0 69 1d 95 3d fc 5c 84 3d 53 e2 20 3e a8 3e a8 3d
       0.07281 0.06463048 0.15711336 0.08215076
0003f0 08 8f b0 3d 8f 35 57 3d ef 92 5c bc 1b 60 05 ba
       0.08621031 0.05254131 -0.013462766 -0.0005087868
